api/bot/data.pth (torch, 5015 bytes, 6 tensors)

l1.weight f4 [8, 54]
-0.17016076 -0.47759926 -0.4914075 0.28850812 0.46373892 0.38116163 -0.22274935 -0.7892942
-0.47019222 -0.822573 0.12772088 0.35884732 0.51778096 0.47333366 -0.15628229 0.34938592
0.39864972 0.37072882 0.648648 0.4043781 -0.25348684 0.3461687 0.4096048 0.633038
0.23995419 0.24492033 0.8419138 -0.5846581 0.68112254 -0.48055416 0.2645336 0.39104694
0.042306293 -0.52616674 -0.050198257 0.2628078 0.5424699 -0.5694222 -0.115200296 -0.13477454
0.21893348 0.8553504 0.2878197 -0.26529342 0.14838701 -0.19988748 -0.6698918 -0.2412147
0.5820262 0.88092667 0.2818479 0.7570621 -0.11256054 0.35503185 -0.22317448 0.5562496
0.52095336 -0.022186048 0.22854102 0.10337327 0.47525054 0.32464206 0.5597554 0.3863866
-0.15282163 -0.14306177 0.43022472 -0.29600036 0.5171023 0.034989994 -0.3745349 0.27342913
-0.430617 -0.5273825 -0.09469156 -0.52727634 -0.52736956 -0.41867438 -0.008749183 -0.1474913
-0.4077767 0.73211944 -0.119475156 0.5275918 0.0916664 -0.051099267 -0.16986223 0.40555158
0.53086275 -0.18173766 -0.1354925 0.38286683 0.44718856 0.4460327 -0.032717176 -0.46429446
-0.108697295 0.42088556 0.4155263 0.7303971 -0.34707215 -0.20960003 -0.163195 -0.61504775
-0.050565284 -0.24117857 0.4648896 0.12201605 0.576966 0.27598542 0.17383298 0.47067162
0.25496182 -0.54249984 0.34501055 0.14189239 0.23705208 0.015326199 0.5752371 0.84692
0.12681007 0.8110659 -0.17245239 0.5559275 0.6572754 -0.64093965 -0.11112437 0.75609577
0.65693575 0.7613752 0.7157807 0.8639072 0.43220904 0.5760697 -0.23785877 -0.25231075
-0.084152184 -0.3093209 -0.37148324 0.70009756 0.35456917 0.07683992 -0.25178987 0.6972111
-0.27197537 0.23680896 0.29860854 0.14300592 -0.43867454 -0.20908137 0.71052164 -0.182303
0.55695647 -0.1469372 1.1273371 0.42497614 0.17380153 -0.38984156 0.64822185 -0.08913077
0.31654936 0.32105508 0.5130068 0.24274276 -0.48679563 0.19642806 0.04305109 -0.35831693
-0.18441653 -0.37050736 -0.37629908 -0.38576415 0.27339303 0.84379613 0.2658725 0.9049368
0.20852782 0.65344954 0.1717788 -0.39721692 0.37545142 0.39029226 0.42034042 0.30517653
0.36705896 0.7171153 0.34534845 0.27138123 0.55104226 0.19060501 0.34933582 -0.0059939176
-0.2044909 0.83970416 0.32739258 -0.59635675 0.3219444 0.7137244 0.34106585 -0.47948486
-0.17390668 -0.28630134 -0.12830678 0.39812633 0.5382998 0.38807452 0.35675994 0.38233903
0.7296402 0.5318757 0.6549191 0.5545678 0.6960249 0.2612939 -0.11530309 0.25029644
-0.15413438 -0.22828 0.435811 0.37600616 0.42572197 0.67507917 0.41862592 0.32052767
0.26742917 0.46720898 0.38360217 -0.312736 0.06318847 -0.44607133 -0.11992168 -0.2391488
0.4130523 0.5671335 -0.21090582 0.6778017 -0.33259332 0.631929 0.642681 0.19797
0.18212596 0.52209187 -0.37724227 -0.36261183 -0.18288726 -0.17867804 0.5123069 -0.34856105
-0.11749532 0.25859928 -0.2099847 -0.16135636 -0.3048148 0.37452936 0.3895239 0.23596135
00000000: 9f3e 2ebe e487 f4be c499 fbbe 56b7 933e
00000010: 306f ed3e 9e27 c33e 6818 64be 2f0f 4abf
00000020: 09bd f0be 2594 52bf 43c9 023e d6ba b73e
00000030: 4b8d 043f ca58 f23e 7708 20be b6e2 b23e
00000040: d11b cc3e 2bd0 bd3e cc0d 263f a50a cf3e
00000050: 07c9 81be 063d b13e b8b7 d13e c70e 223f
00000060: 8db6 753e 65cc 7a3e aa87 573f 27ac 15bf
00000070: 0c5e 2e3f 320b f6be f370 873e 4e37 c83e
00000080: 5d49 2d3d ddb2 06bf b09c 4dbd be8e 863e
00000090: 4fdf 0a3f a7c5 11bf 22ee ebbd 5602 0abe
000000a0: 1930 603e 3ef8 5a3f 1b5d 933e 8ad4 87be
000000b0: c4f2 173e 4eaf 4cbe 077e 2bbf fc00 77be
000000c0: abff 143f 6984 613f 5e4e 903e d2ce 413f
000000d0: 2486 e6bd bcc6 b53e da87 64be 6066 0e3f
000000e0: 335d 053f 84bf b5bc a806 6a3e 5db5 d33d
000000f0: 0a54 f33e 7c37 a63e 214c 0f3f 77d4 c53e
00000100: 467d 1cbe c97e 12be 6a46 dc3e 5c8d 97be
00000110: d160 043f ab51 0f3d 0ac3 bfbe e7fe 8b3e
00000120: d579 dcbe 8a02 07bf a6ed c1bd 95fb 06bf
00000130: b101 07bf 7d5c d6be bc58 0fbc f607 17be
00000140: 1cc8 d0be 2e6c 3b3f 64af f4bd 4210 073f
00000150: 98bb bb3d 774d 51bd 5df0 2dbe 75a4 cf3e
00000160: 9fe6 073f 7019 3abe 8cbe 0abe 1f07 c43e
00000170: e6f5 e43e 665e e43e 7202 06bd 01b8 edbe
00000180: b09c debd 507e d73e ddbf d43e 4efb 3a3f
00000190: 71b3 b1be 64a1 56be 971c 27be c573 1dbf
000001a0: 8b1d 4fbd 84f7 76be 0206 ee3e 8de3 f93d
000001b0: 0bb4 133f f64d 8d3e 4601 323e dffb f03e
000001c0: 5b8a 823e 45e1 0abf 39a5 b03e 3d4c 113e
000001d0: c8bd 723e bd1a 7b3c bd42 133f c0cf 583f
000001e0: 80da 013e 04a2 4f3f 5c97 30be 4451 0e3f
000001f0: 3343 283f 9f14 24bf 2c95 e3bd 7e8f 413f
00000200: f12c 283f 7ce9 423f 673d 373f 0629 5d3f
00000210: 814a dd3e 4e79 133f 4091 73be e02e 81be
00000220: fb57 acbd 4f5f 9ebe 0d33 bebe 9839 333f
00000230: 178a b53e 3f5e 9d3d 9aea 80be 6d7c 323f
00000240: 5b40 8bbe 0c7e 723e 38e3 983e 2570 123e
00000250: f399 e0be 6d19 56be bfe4 353f a3ad 3abe
00000260: b394 0e3f b576 16be 954c 903f 7996 d93e
00000270: 07f9 313e 5099 c7be def1 253f 318a b6bd
00000280: c212 a23e 5561 a43e 6a54 033f 8f91 783e
00000290: 473d f9be 7024 493e 5756 303d 5175 b7be
000002a0: b0d7 3cbe 24b3 bdbe 46aa c0be e182 c5be
000002b0: 2cfa 8b3e 0603 583f 7120 883e f0a9 673f
000002c0: 5188 553e 7848 273f c8e6 2f3e 0460 cbbe
000002d0: 2b3b c03e 63d4 c73e dc36 d73e 1940 9c3e
000002e0: 27ef bb3e de94 373f 83d1 b03e 7bf2 8a3e
000002f0: 1b11 0d3f f62d 433e 25dc b23e a068 c4bb
00000300: 1066 51be daf6 563f 00a0 a73e d6aa 18bf
00000310: e5d5 a43e a4b6 363f 2fa0 ae3e 0a7f f5be
00000320: 9814 32be 1796 92be da62 03be 37d7 cb3e
00000330: 04ce 093f b4b1 c63e 3da9 b63e f1c1 c33e
00000340: b3c9 3a3f 0229 083f c7a8 273f 28f8 0d3f
00000350: b02e 323f 50c8 853e 0724 ecbd db26 803e
00000360: 67d5 1dbe 3bc2 69be 9f22 df3e e183 c03e
00000370: 3bf8 d93e fdd1 2c3f 2356 d63e 341c a43e
00000380: 7aec 883e 0436 ef3e 8167 c43e ef1e a0be
00000390: f568 813d 7663 e4be 7f99 f5bd 6ce3 74be
000003a0: 977b d33e a92f 113f b2f7 57be 6a84 2d3f
000003b0: ac49 aabe 19c6 213f be86 243f a6b8 4a3e
000003c0: 3a7f 3a3e d0a7 053f e625 c1be 42a8 b9be
000003d0: cc46 3bbe 60f7 36be 8c26 033f 9876 b2be
000003e0: 63a1 f0bd 2067 843e 3b06 57be 9a3a 25be
000003f0: af10 9cbe 50c2 bf3e ad6f c73e da9f 713e

l1.bias f4 [8]
0.66957 0.5273639 0.75281274 0.8216869 0.6257782 0.5856701 0.6223294 0.65383273
00000000: f168 2b3f 5201 073f 56b8 403f 135a 523f
00000010: 0033 203f 7aee 153f fb50 1f3f 9561 273f

l2.weight f4 [8, 8]
-1.420804 0.84598523 0.812245 -0.033983346 -0.18350448 -0.26761743 1.428963 1.1184076
-0.28062773 -0.21039677 1.4567343 0.1890927 0.93784136 -1.2444634 1.1368577 0.2388524
0.12518978 -0.19848366 -0.015921123 -0.27722082 0.24167344 0.11661366 0.09207525 -0.19825664
-0.6727958 0.6640571 0.6231324 0.9378275 -0.93148917 0.021513214 -0.052857522 -0.010383115
-0.21480164 1.3300672 -0.047959592 -0.020582343 1.0651224 1.1506276 0.7680958 1.5715472
-1.0453935 0.20473263 0.40205237 1.0590281 -1.0044363 0.593373 0.28739446 0.6077953
1.0496411 -0.6266134 1.2538419 1.7800782 -0.42749786 -0.36569884 0.06918154 -0.89841735
-0.82685935 0.004804067 0.36346754 0.55523694 -0.53481025 1.2473434 -0.10395656 0.9748042
00000000: e8dc b5bf 7d92 583f 4aef 4f3f 1f32 0bbd
00000010: 99e8 3bbe 2705 89be 42e8 b63f fb27 8f3f
00000020: 70ae 8fbe 4072 57be 4576 ba3f 84a1 413e
00000030: 5f16 703f 944a 9fbf 8e84 913f b995 743e
00000040: c031 003e 4d3f 4bbe 046d 82bc e3ef 8dbe
00000050: 3e79 773e 24d3 ee3d f391 bc3d ca03 4bbe
00000060: 583c 2cbf a5ff 293f 9b85 1f3f 7715 703f
00000070: 1376 6ebf 7b3c b03c 2181 58bd f11d 2abc
00000080: f6f4 5bbe a43f aa3f 4771 44bd 4d9c a8bc
00000090: ee55 883f c447 933f eda1 443f 7528 c93f
000000a0: 74cf 85bf 6ea5 513e cfd9 cd3e 3c8e 873f
000000b0: 5e91 80bf 4be7 173f 5e25 933e 7998 1b3f
000000c0: a45a 863f bc69 20bf e47d a03f 9ad9 e33f
000000d0: 00e1 dabe e13c bbbe 0daf 8d3d aefe 65bf
000000e0: 0ead 53bf 6f6b 9d3b 6b18 ba3e 0224 0e3f
000000f0: 53e9 08bf f3a8 9f3f 2de7 d4bd c58c 793f

l2.bias f4 [8]
0.0656233 0.3961915 -0.33149362 -0.31067494 0.009408868 0.048922203 0.77857256 0.19514233
00000000: 8265 863d 9dd9 ca3e 88b9 a9be c910 9fbe
00000010: a727 1a3c a662 483d 8850 473f 64d3 473e

l3.weight f4 [7, 8]
-1.2678332 -0.08887453 -0.28639242 0.49054182 -1.2757995 0.0793517 0.4352599 -0.015157918
0.34239918 -0.9748085 -0.06645066 0.08201783 0.1612459 -0.03037855 -0.89996845 0.09692568
-0.86520076 -0.7358357 -0.008036542 -0.9083592 0.98708266 -1.3708321 -0.89532876 0.37994012
-0.024575403 0.8632502 -0.204571 -0.9588444 -0.35985225 -1.2855519 0.28321066 -1.3128476
-0.4595164 -1.2143947 0.06403055 -1.0142796 -1.298299 -0.80750734 1.0216204 -0.93578684
0.71872145 0.45070598 -0.15693368 -0.9084304 0.33301097 -0.7698645 -1.2616739 -1.1969962
0.06731909 -0.23760483 0.29584268 0.11800347 -0.63796335 0.08846531 0.07717551 0.5324606
00000000: 5c48 a2bf d903 b6bd 07a2 92be 4c28 fb3e
00000010: 664d a3bf 2583 a23d 63da de3e eb58 78bc
00000020: f24e af3e 0d8d 79bf 4917 88bd f7f8 a73d
00000030: a51d 253e 70dc f8bc 5564 66bf f980 c63d
00000040: cc7d 5dbf ba5f 3cbf b3ab 03bc 3b8a 68bf
00000050: 73b1 7c3f 6d77 afbf 4434 65bf 8387 c23e
00000060: 5b52 c9bc f7fd 5c3f 0f7b 51be d476 75bf
00000070: 8e3e b8be f78c a4bf fd00 913e 640b a8bf
00000080: bc45 ebbe 4971 9bbf 7322 833d ead3 81bf
00000090: a92e a6bf cdb8 4ebf 75c4 823f ba8f 6fbf
000000a0: 21fe 373f efc2 e63e 39b3 20be e58e 68bf
000000b0: 6a80 aa3e d715 45bf 887e a1bf 2c37 99bf
000000c0: 97de 893d ae4e 73be b178 973e ceab f13d
000000d0: 9151 23bf 4d2d b53d 320e 9e3d 564f 083f

l3.bias f4 [7]
-0.77158284 -0.8637492 0.51005745 -0.04587116 0.33086956 -0.63524383 -0.317713
00000000: 7486 45bf ab1e 5dbf 2093 023f 66e3 3bbd
00000010: bc67 a93e 579f 22bf 47ab a2be
